app/src/main/ml/model_v2.tflite (tflite, 47148 bytes, 8 tensors)

sequential_7/dense_31/BiasAdd/ReadVariableOp f4 [5]
00000000: c94f 27bd 5969 91bd a48b 683d 6a33 fbbb
00000010: 744f c8bc
-0.040847573 -0.071001716 0.056773797 -0.007666041 -0.024451949

sequential_7/dense_30/BiasAdd/ReadVariableOp f4 [32]
00000000: ea2c 613d c4c0 dabb 6f80 b13c 86f4 a7bb
00000010: 7333 bdb9 9545 21bd 2046 13bc ae37 c73d
00000020: 5a38 cf3d d478 333d 7c67 4a3d b90d f23c
00000030: 0488 d8bc 5995 623d 79d5 ff38 8fff 9dbc
00000040: fd74 453c 23f6 b8bc 2fde aa3d 4c0f f43c
00000050: 27ff a2bd 5d5a cbba d500 dc3c 00d8 5dbc
00000060: 37df 4e3b fde1 253d c045 9d3c cacb da3d
00000070: 210c 23bd 4299 303d 0e5f a13c 969a 88bd
0.054974474 -0.0066758115 0.021667687 -0.005125585 -0.00036087222 -0.039373 -0.008988887 0.09727417
0.1011817 0.043816403 0.049415097 0.02954756 -0.026432045 0.05531821 0.0001219911 -0.019286899
0.012051818 -0.022578305 0.083431594 0.02979245 -0.07958823 -0.0015514601 0.026855865 -0.013540268
0.0031566152 0.040498722 0.019198298 0.10683401 -0.03980649 0.043114908 0.019698646 -0.0667011

sequential_7/dense_29/BiasAdd/ReadVariableOp f4 [64]
00000000: b3ca 87bc 00a2 543c d9ed 0ebd 029e 013e
00000010: 6aa3 c13c 4f18 283d c3e0 603b dc93 633d
00000020: 1857 efbb 9197 85bb fdbc f93d d426 a23e
00000030: 21ba 013e 00ad 843d e8ea ad3c 3e3b 0a3e
00000040: e761 41bc 0000 0000 c149 7f3d c3b1 85bd
00000050: 91b2 1cbb 12d0 8bbc e6ba 28bc c33b ea3d
00000060: 2fc0 2ebb 0899 a7bb b8cd 2dbd 66f2 143e
00000070: d697 2c3c cd16 063e 332b 0bbc d35e 0cbc
00000080: 487f 923d 4ff0 99bc ca85 e5bc aea8 4abd
00000090: 28b4 c0ba 2487 5c3d f439 01bc b7f1 0f3e
000000a0: 73c8 7bbc ff6b 643d 4d3d 0d3e dd3b d53d
000000b0: 6aac 843d 0000 0000 f280 74bc 997d b8bc
000000c0: e79c 19bc dbce 233d 7702 113d 294e d93d
000000d0: 20b3 01bc 8d2c 19bd 8557 2bbd 1ff8 3b3d
000000e0: c8fe aabc 5ba0 c73d ff97 3f3b c2b9 e93d
000000f0: 59ca 15bc 372c 0bbb 75e3 a6bc 18de a83d
-0.016576147 0.012978077 -0.034894798 0.12657931 0.023637492 0.041038807 0.0034313656 0.05556093
-0.0073040836 -0.004076906 0.1219425 0.31670249 0.12668659 0.0647831 0.021230176 0.13499162
-0.011803127 0.0 0.062326197 -0.06528046 -0.0023910145 -0.01706699 -0.010298466 0.1143718
-0.0026664843 -0.0051146783 -0.042432517 0.14545593 0.010534247 0.13094635 -0.008494186 -0.00856753
0.07153183 -0.018791346 -0.028017897 -0.04947727 -0.0014702128 0.053839818 -0.007887352 0.1405705
-0.015367615 0.055767056 0.13792916 0.10411809 0.06478198 0.0 -0.014923321 -0.022520827
-0.009375787 0.039992195 0.03540274 0.10610611 -0.007916242 -0.037396003 -0.041831512 0.045890924
-0.020873442 0.09747382 0.0029234884 0.114123836 -0.009142482 -0.002123607 -0.020372132 0.08245486

sequential_7/dense_28/BiasAdd/ReadVariableOp f4 [128]
00000000: 74ba acbd 9c39 29bd 93fe c5bc 19b8 05bc
00000010: 77f3 843d 97d8 2abd 66a3 07bd 9125 c73d
00000020: 1518 8d3d 21b6 ad3c b844 9e3d 5caf ad3c
00000030: 8192 0abc e205 ca3d 4cbe 123d 2d9b 0e3e
00000040: 4184 0dbd 3c40 d63d 1db8 b73d 161f 203d
00000050: 51e6 2e3e c17e fa3c 3600 043e 30d7 4ebd
00000060: ff44 1bbc 8043 203e 3f6f 053e 0734 b8bc
00000070: 0861 2d3d 57fe 80bd 5c13 133e 5bf2 7b3c
00000080: cf6e aa3d 0594 3ebd 92ba cb3d 1c47 373d
00000090: d357 ef3d c58f 8d3d fae1 023e e38c a53d
000000a0: a163 8cbd a5ae 213e acf0 5bbd 771d ddba
000000b0: e284 0c3e e0a8 1fbc fb8c b5bc 4b62 c13d
000000c0: ff0a d33d 37e1 fabc ea3f a53c bb02 fa3c
000000d0: d541 77bd 1697 bd3d c783 72bd 6f50 bf3c
000000e0: 1cd5 df3d 5e48 d23d fa39 153e 68bc 9d3d
000000f0: 40c5 a83d 56a8 ba3d f1c9 db3d dc90 d0bb
00000100: e7dd ed3d d852 013e d154 113e a0e6 b2bc
00000110: ec58 bdbd 1669 b33d 05dc c23d b713 573b
00000120: bc47 e33d 219f 313d bf59 0a3e 617c 253c
00000130: a742 c23d 1987 1cbd dd63 49ba d9bd c53c
00000140: 9e4b 2b3e 8db1 623d bba9 023e b8d6 a43d
00000150: a215 303e bb68 9f3d 8efe 033e 1f53 c33d
00000160: 0513 a4bd 233f 093e 8dab 2f3d fbec 013e
00000170: d316 1c3e 24d0 bfbc 8b52 acbc 9c31 123d
00000180: 351d 083e 0397 06bd 1646 203d b3f9 f93d
00000190: 3eea 7f3d b55d f6bc f9b2 0b3e 5591 2d3e
000001a0: 3690 193e db0f f4bc 865f f63b c548 77bc
000001b0: 179e 003d b3c0 2c3e 9e2c 243e ce8b 55bc
000001c0: 3830 4cbc eb2e af3b cb37 153e e9f4 8a3d
000001d0: 98cf efbb e4e6 d3bd 0520 e53b 5afa 48bd
000001e0: 6b39 49bd ecd6 2ebd bb2c 0ebd 7f03 233b
000001f0: b497 32bd 3ac7 a93d 6051 bb3c 046f 9abd
-0.084340006 -0.041314706 -0.024169242 -0.008161568 0.0649175 -0.041710462 -0.033114813 0.09723962
0.06889359 0.02120501 0.07727951 0.021201782 -0.008457781 0.09864403 0.035826012 0.13926382
-0.034549955 0.104614705 0.08970664 0.039092146 0.17080046 0.03057802 0.12890705 -0.050498188
-0.009476899 0.15650749 0.13030718 -0.022485746 0.042328864 -0.062985115 0.14362854 0.015377606
0.08321916 -0.04652788 0.09947695 0.04474555 0.11686673 0.069121875 0.12781516 0.08083513
-0.0685494 0.15789278 -0.05369632 -0.0016869743 0.13722566 -0.009744853 -0.022161951 0.09442576
0.10304832 -0.030624969 0.020172078 0.03051888 -0.060365517 0.09257333 -0.059207704 0.023353783
0.10929319 0.10267709 0.14572898 0.07701951 0.082407475 0.09114139 0.10731877 -0.006364925
0.1161459 0.12629259 0.14192511 -0.021838486 -0.09245476 0.08760278 0.09514622 0.0032818147
0.110976666 0.043364648 0.13510798 0.010100455 0.09485369 -0.038214777 -0.00076824223 0.024138378
0.16728064 0.055345107 0.1276006 0.08048767 0.17195752 0.077836476 0.12890074 0.095373385
-0.0801144 0.13402991 0.042888213 0.12688057 0.15243082 -0.023414679 -0.021035453 0.035691842
0.13292392 -0.03285886 0.03912934 0.122058295 0.06247925 -0.03007398 0.13642491 0.16949971
0.14996418 -0.029792717 0.0075187115 -0.015093033 0.031400766 0.16870384 0.16032645 -0.01303382
-0.012462668 0.005346169 0.14572065 0.06784994 -0.0073184483 -0.10346773 0.0069923424 -0.04906688
-0.049127024 -0.042685434 -0.034710627 0.002487391 -0.043601707 0.082899526 0.022865951 -0.07540706

sequential_7/dense_28/MatMul f4 [128, 4]
00000000: 8887 403e 209d e73d d577 233e d39f 57be
00000010: cd82 103e 8147 6739 0cb4 fcbd 6130 75bd
00000020: 4a30 553c 6f3e cebd 5799 4f3e 61db a3bd
00000030: cbc1 d43d 08d1 9f3d a73e 443e 0030 aabd
00000040: 67ca 69bd 7c89 debd 962e 41be a0ec 8abd
00000050: c07b 563e 025c cb3d 92df a13d 3626 443e
00000060: 878e 2b3c 6c1b b2bc 9991 a4bc 3cba 953d
00000070: ee14 34bc 0873 2d3e fd3b 33be 6cf6 4dbd
00000080: 2fe1 39be 9c10 62be b15f 27be 484a 43be
00000090: 4c1c 4dbe c597 45be be52 a93d 7cac 4fbe
000000a0: 29c8 53be fa1d 6dbe 407d 1f3e b64e e13d
000000b0: 1a51 47be 8f62 c0bb 88d7 743d 7e6e 063e
000000c0: 93f3 1cbd e3fb 26be 8711 c63d 9b83 4bbe
000000d0: 4543 9d3d 83bb a3bd b8db 6d3e 67e5 8f3e
000000e0: 87a4 b83d 560c 243e cc08 c3bc 6c36 f3bc
000000f0: 88b2 c63c 6422 e0bc 7b0b 173e 3224 863e
00000100: d6c2 adbd 64c8 263e bbd9 7d3d 9b3f 43be
00000110: 3131 3d3d 5b1b 5bbd e1fa c33d 61ea b0bd
00000120: 31f6 26be 9af6 d5bc 18a0 03be 13fd c6bb
00000130: 744f 1a3e 056c a33d cdbd f53d 4c29 84bc
00000140: a4d5 88bd 5b39 dc3c be56 85be 1e10 0c3c
00000150: ac6a ec3d 6dbd 293d 3dcc f1bd 64f1 82bc
00000160: 0df6 b33d e869 fcbd 03bd 083e 712f 583d
00000170: 2a94 51bd 469f 0a3e b193 0a3e 2da0 ecbd
00000180: 992a cd3d e1ac 033e 0bf8 383e 1aea 2dbe
00000190: 333b 26be bf81 383e 610d 57be 3cd9 f0bd
000001a0: c417 09be 9033 093e 62c6 36bd 7656 bebd
000001b0: 4e2f 58be 31ef bfbd 0b59 c7bc ce01 bdbd
000001c0: 4ea2 443e 4271 3e3e 1197 7dbd 3281 b4ba
000001d0: fe29 90bd aef2 d33d f660 3f3e baed 06bb
000001e0: aa9d 173e 08f8 2d3d c877 18bd 5a07 943e
000001f0: c37f cbbd 3bc5 3f3e b436 cd3d bbd4 36be
00000200: f379 4ebe 164a c43c 9928 45be 6c90 ecbd
00000210: 6294 333e 219b f8bd 5335 c0bd 97f7 f33d
00000220: 7749 ee3d a605 e13d 58d7 46be 8f44 16bc
00000230: 735d 0fbd 63e4 aa3c e1a1 28be 863c 29be
00000240: a3bc fc3d 364b 503e 352a 7c3d adb9 873e
00000250: 2ed9 dc3c 2a68 7dbc d3ea 013e a135 d6bd
00000260: 9cfd 493e 75cd 4cbe bebf 323e 81e5 e83d
00000270: 36d3 d9bd 823a 493e 03d9 c03d 707c 55bd
00000280: c743 e73d 4b5e 513c 8f74 0f3e 0734 27be
00000290: b88f b13d 555d b6bd 9fc5 94bc de0e 4a3e
000002a0: 9a94 a73d fc18 393e bfb1 f83d 111f 1c3d
000002b0: 882a abbc 5768 2fbe 8ac0 8abd 548e 4bbe
000002c0: f955 923d 111b 1cbe f554 53bb 4e3a fb3c
000002d0: 3a03 693d 542a 42be 93e2 38be 83b5 22be
000002e0: 65f2 313d 3973 56bd 9d58 06be 272a 333e
000002f0: e075 cfbd e60e 4dbe c65b 82be f435 7dbd
00000300: 104d 41be 9404 643b e47f 81be aa9c e73d
00000310: c713 0e3e 9e08 9d3d bfd0 8a3d e65c e6bd
00000320: 9a89 d0bc 0254 f1bc a69f b6bd 5af0 0dbe
00000330: 05fc 763d 85f8 8fbd b830 5c3e ffd0 e33d
00000340: 4268 4e3e 430b 15be 8cc2 1f3e 6143 823d
00000350: f2bd 933d 1df0 8ebd 1f68 f9bd a130 cfbc
00000360: 5ac7 593e b58e 353d 9f86 acbd b680 5bbe
00000370: 1508 06be 0256 5ebe 08ce 39be 2db0 31be
00000380: 46e2 763c 6f2a 273e 04b3 183d 523b 523e
00000390: 87b8 3dbe d3ef c9bd 9643 233e df96 d93d
000003a0: 3fc8 d63d 017a 78bd 811d 973d b7c3 833e
000003b0: e65a 4fbe c4ec 14be eb70 0abc 3941 8e3d
000003c0: fc06 e63d 009c 8dbd 1b07 503d 55e5 a03d
000003d0: 6df1 67bd 962c de3d 1674 283d 7cd2 14bb
000003e0: e79a 78bc 2f5c 3fbe 03d2 f1bd 693b 02be
000003f0: 3db2 233b 067b b23d ff26 b0bd 4f52 82bd
0.18801701 0.11309266 0.15963681 -0.21057062 0.14112397 0.00022056514 -0.12339029 -0.05986059
0.013012001 -0.10070502 0.20273338 -0.080008276 0.103885256 0.078035414 0.19164525 -0.083099365
-0.05707779 -0.10866067 -0.18865427 -0.06783414 0.20945644 0.099296585 0.07903971 0.19155201
0.010470993 -0.021741591 -0.020088958 0.07310912 -0.010991318 0.16938412 -0.17503352 -0.050283834
-0.18152307 -0.22076648 -0.16345097 -0.19071305 -0.20030326 -0.19296177 0.08267735 -0.20280641
-0.20681824 -0.23155966 0.15575123 0.11001341 -0.19464532 -0.005871124 0.05977586 0.13128087
-0.038318228 -0.16307025 0.09671312 -0.19874422 0.07678846 -0.079947494 0.23228347 0.28104708
0.09015756 0.16020331 -0.023807906 -0.029689036 0.024255052 -0.027360149 0.14750473 0.2619949
-0.08484428 0.1628738 0.061975222 -0.19067232 0.04618949 -0.053492885 0.09569336 -0.08638454
-0.16304852 -0.026118565 -0.1285404 -0.0060726493 0.15069371 0.079795875 0.11999092 -0.016132973
-0.06681374 0.026882818 -0.26042742 0.0085487645 0.115437835 0.041440416 -0.118065335 -0.015984245
0.08787165 -0.123248875 0.13353352 0.05277962 -0.05116669 0.1353732 0.13532902 -0.115539886
0.100178905 0.12858917 0.18063371 -0.16983834 -0.1623352 0.18018244 -0.21001197 -0.11760184
-0.13387972 0.13398576 -0.044622786 -0.09293835 -0.21111795 -0.09371794 -0.024334451 -0.0922886
0.1920254 0.18597892 -0.061911646 -0.0013771413 -0.070392594 0.10349022 0.18689331 -0.0020588473
0.14806238 0.04247287 -0.037223607 0.2891186 -0.09936478 0.18727581 0.100201994 -0.17854588
-0.20163707 0.023961108 -0.19253768 -0.11550984 0.17537072 -0.121389635 -0.09385171 0.119124584
0.11635106 0.109874055 -0.19418085 -0.009171619 -0.03500123 0.020860856 -0.16468002 -0.16526994
0.12340667 0.2034119 0.06156369 0.26508847 0.026959028 -0.015466729 0.12687235 -0.10459448
0.1972565 -0.2000025 0.17455956 0.113718994 -0.106359884 0.19651225 0.09416392 -0.052120626
0.112922244 0.012778829 0.14009307 -0.1632844 0.0866999 -0.089045204 -0.01816064 0.19732234
0.081826404 0.18075937 0.121432774 0.038115565 -0.020894304 -0.17129646 -0.06775005 -0.19878513
0.07145304 -0.152447 -0.0032246683 0.03066745 0.056887843 -0.1896146 -0.18055181 -0.15889554
0.043444056 -0.05235598 -0.13119741 0.17496549 -0.10129905 -0.20025215 -0.25460643 -0.06181903
-0.18877053 0.0034792768 -0.25292885 0.11309178 0.13874732 0.07667659 0.067780964 -0.11248188
-0.025456239 -0.029459003 -0.08917169 -0.13861218 0.06029894 -0.07029823 0.2150296 0.11123847
0.20156959 -0.14555077 0.15601557 0.06360508 0.072139636 -0.06979392 -0.12178063 -0.025291743
0.21267453 0.04432555 -0.084241144 -0.21435818 -0.1308902 -0.21712497 -0.18145001 -0.17352362
0.015068596 0.16324781 0.037280098 0.20530441 -0.18527423 -0.09860196 0.1594375 0.106244795
0.10487413 -0.060663227 0.07378674 0.25735256 -0.20249519 -0.14543444 -0.008449773 0.06946034
0.11231801 -0.0691452 0.050788026 0.078562416 -0.056626726 0.10848348 0.041126333 -0.0022708466
-0.01517365 -0.18687509 -0.11807635 -0.12717976 0.0024978064 0.08714871 -0.08601188 -0.06363355

sequential_7/dense_29/MatMul f4 [64, 128]
00000000: 41ec 37be 2d9a 31be d440 92bd 8ec6 8c3c
00000010: 5e5d 9b3d f5da 6dbd e95b 16be dd41 fa3d
00000020: b3b5 ddba 3678 7bbd 82f7 06be fcad da3c
00000030: 5336 1abc 1262 ec3c e2e6 273d 0c1b 833d
00000040: dd5b 13be f6db 023d 74ea 52bd 24a4 ad3c
00000050: 6fc6 fcbd bcbe 523d 3030 8a3d bb92 b5bb
00000060: 7669 053e 6ea8 25be d35a 223d e2f0 e0bc
00000070: 66e5 1c3e 22c7 053c 02b2 22be ae12 9cbd
00000080: cfdb ffbd c039 52bc afa8 473d 07f1 3bbe
00000090: 7d3a c3bc e5a4 84bd 5093 5abd 109e 38be
000000a0: c086 1c3e e5e5 fb3c 7858 2fbe 6457 6d3a
000000b0: ec3e b93d bd5a 8bbd 8eae 3fbd 9452 15be
000000c0: 5d1f 27be 7480 b83d 1a09 1fbe bb1d 253e
000000d0: 9f76 003e 8870 b53d 70c7 d63b f864 f03d
000000e0: 068b 21bc 682f 04bd 64f1 0fbe ecb6 0a3a
000000f0: 468e dfbd 0342 10be 996a 823c f5bf de3c
00000100: 6e15 10be ea0d 4a3d 3a21 713b 044e fb3b
00000110: 8144 293e 624c 8c3d 1cad 9cbd 26df b3bd
00000120: c66f cf3d 7409 133e 7013 033e bc44 223d
00000130: 070f 51bd 7264 cc3d bb12 1d3e c89d aa3c
00000140: 1bc7 c8bd 2f36 e9bd ba65 2bbe c29b 18be
00000150: 51fd f5bd 7bf5 d9bd 42e1 c53c 5b59 1ebe
00000160: a2ec d33d b052 cfbd 9271 8d3d 7593 a43d
00000170: f20b ea3d fd44 dcbd 66ba f2bd 9482 cbbd
00000180: 4a30 16be ac98 a53c be1f 62bc 3cba fe3c
00000190: eb2c 6abd 5734 e73d bbb6 0b3e 3d4a 223e
000001a0: cbae 053e 3c1d 0abd e313 dcbd c84f 203e
000001b0: c388 38be 8777 d4bb a37c fdbd acb3 f73c
000001c0: 896a 44be 942e 153d f93c 13bc 2a1d 0bbd
000001d0: de38 3a3b 2728 fb3d e016 153e 506f a1bd
000001e0: 0bc2 28be f2af b6bd eb88 0ebd c253 ca3d
000001f0: 3a01 ca3d d959 17be 5f02 f13d ae02 72bc
00000200: a0cc 14be b366 3b3e 6a82 a2bc 882d 593d
00000210: 7bcb bd3d 0e06 b83c 2bbf 123e 3ef2 75bb
00000220: bd92 5abd 7592 053b a45f 0cbe 37cd b0bc
00000230: b3ee f23c 090e 123e ea02 423d 270b 0fbe
00000240: 3fd1 b73d dc27 12be 510a dc3d a829 73bd
00000250: 744e 9b3d 277d a4bd 1927 c33d 5a2f b03d
00000260: cd64 be3c 09f5 a8bd 32ec 03be e63d bf3d
00000270: b069 e4bc f7fa adbd 9eb2 c63d 411c 29be
00000280: e7fa 333e 0c4f 3b3d ea3e a93d 956a f73d
00000290: e256 8d3d a32c c53c 8e9a a83d 6f0c 063c
000002a0: 6186 303e e21b e0bc bab1 133e 34ef 24bd
000002b0: 4bdd 11be 82ac b4bd 22d3 bbbd 4e70 f5bc
000002c0: c7e7 2a3d 1021 02be c3db 3d3c e729 5cbd
000002d0: 358c 963d 8374 2c3e 0464 c23d 8917 a73d
000002e0: 43ec e6bd 1aee 19bd 92ea d0bd 21bf e83d
000002f0: 1491 3e3e a39d ae3d c98f 053e 0203 2c3e
00000300: c6db 203e 4858 3b3e a495 ce3c 9300 ecbd
00000310: 2acb 46bd 30ea a6bd 0061 07bd 59cc cdbc
00000320: 3ccd 033e 734a 50bb 3f4d 353c 2de4 e23c
00000330: d535 173d 6f19 243e 267e 933d 252d 573d
00000340: a9e0 9ebb 6bd8 763d 68b9 833d 2db8 1f3d
00000350: 7f9c 8dbd 6a4e d83d e05f a93d 65f5 393e
00000360: bf9a 09bd fe2f 2dbe 1899 e53d dd20 91bd
00000370: e14c e63d 8a7b fdbd a9c7 983d adac 58bd
00000380: bd7d 123e ecaa 023d e837 a7bd ad51 853b
00000390: 9a0d 353b 045f 69bd 0964 903d e033 e53d
000003a0: 1752 a1bd 2ddd 50bc d676 e43d fc6b d23d
000003b0: 2bd4 143e ef75 42be 0d00 083e 51ac 27bd
000003c0: d0e2 bf3d 1d19 d63d d5e9 113e dbb3 cbbc
000003d0: 836f 32be 4ae3 0bbe 6a39 db3c 8926 a3bd
000003e0: 8e5f 0c3d e4f3 2b3e 7093 da3d 079e 073e
000003f0: 20d6 18bd 14c9 dabd 39e1 afbd 8ef8 733b
-0.17961217 -0.1734397 -0.07141271 0.017184522 0.07586168 -0.05807014 -0.14683498 0.12219594
-0.0016915113 -0.06139394 -0.13180354 0.02669429 -0.009412366 0.028855357 0.04099167 0.06401643
-0.14390512 0.031948052 -0.051493123 0.021196432 -0.12342536 0.05145143 0.06747472 -0.0055411733
0.13028511 -0.16177532 0.039637398 -0.027458612 0.15321884 0.008165153 -0.15888217 -0.0762075
-0.12493097 -0.0128311515 0.048744854 -0.18353663 -0.0238316 -0.06476764 -0.053363144 -0.18029046
0.15285778 0.03074927 -0.17123592 0.0009053855 0.090452045 -0.06804416 -0.046797328 -0.14582282
-0.16320558 0.090088755 -0.15530816 0.16124623 0.1254525 0.08859354 0.0065545365 0.11738008
-0.009859806 -0.032271773 -0.14056927 0.000529154 -0.109158084 -0.14087681 0.01591997 0.027191142
-0.14070675 0.049329676 0.0036793486 0.0076692123 0.16530038 0.06850506 -0.076502055 -0.087827966
0.10128741 0.14359075 0.12800384 0.03961633 -0.05103972 0.09980096 0.15339176 0.02082719
-0.09803601 -0.11387288 -0.16738024 -0.14903167 -0.12011207 -0.10642525 0.024155263 -0.15463774
0.103478685 -0.10123193 0.069064274 0.08035938 0.1142806 -0.10755346 -0.11851959 -0.09937015
-0.14666858 0.020214401 -0.013801513 0.031094663 -0.057171743 0.1128928 0.13643925 0.15848632
0.1305496 -0.033719286 -0.107459806 0.15655434 -0.1802092 -0.0064839753 -0.12377288 0.030237041
-0.19181265 0.036421373 -0.008986705 -0.03396336 0.0028415243 0.12263518 0.14559507 -0.07882559
-0.16480272 -0.08920278 -0.034798544 0.09879257 0.09863515 -0.14780368 0.117680304 -0.014771147
-0.14531183 0.18300895 -0.019837577 0.053021938 0.092673264 0.022463825 0.14330737 -0.003752842
-0.053362597 0.0020381485 -0.13708359 -0.021582229 0.029654836 0.14263166 0.04736606 -0.13969098
0.089754574 -0.14273018 0.10744155 -0.0593659 0.07583323 -0.080316834 0.09528942 0.086027816
0.023241425 -0.08249862 -0.1288307 0.09337978 -0.027882427 -0.08495133 0.09702037 -0.16514684
0.1757618 0.04572968 0.08263953 0.12080876 0.06901337 0.024069136 0.08232604 0.008181675
0.17238761 -0.027357046 0.14423266 -0.040267184 -0.14244573 -0.08821966 -0.0917113 -0.029960778
0.041724946 -0.12707925 0.01158804 -0.0537509 0.07350961 0.1684132 0.09491733 0.08158786
-0.11275532 -0.037580587 -0.10200991 0.1136458 0.1861003 0.085261606 0.13043131 0.16798022
0.15708837 0.18295395 0.025217839 -0.11523547 -0.048533596 -0.081501365 -0.03305149 -0.025121855
0.1287126 -0.0031782656 0.01106578 0.027696693 0.036916573 0.16025327 0.07201795 0.052533288
-0.004848559 0.060264986 0.06431848 0.038994003 -0.06914615 0.10561831 0.0827024 0.18160017
-0.033594843 -0.16912839 0.11210841 -0.07086346 0.11245132 -0.12377079 0.07459957 -0.05289905
0.14305778 0.031901285 -0.0816496 0.0040685744 0.0027626515 -0.05697538 0.0705033 0.11191535
-0.078769855 -0.012748045 0.11155479 0.10274503 0.1453406 -0.189903 0.1328127 -0.040935818
0.09369433 0.10454009 0.14249356 -0.024866035 -0.17425351 -0.13660923 0.026760776 -0.079663344
0.034270816 0.16792256 0.10672653 0.13243876 -0.03731358 -0.10682884 -0.0858788 0.0037227008

sequential_7/dense_30/MatMul f4 [32, 64]
00000000: 62e0 2b3e 5fc8 943d 4a60 56be d20e 23bc
00000010: 03cb 1dbb 3cfd 803e ac51 1b3e 6f78 803e
00000020: 571b 273e 3c10 243d ef88 bbbd 0067 243e
00000030: d1f5 1abd 7d7d b4bd 21b2 063e bb5d 803e
00000040: cae4 8a3d 50bf 06bd deab a4bd 0f04 833d
00000050: 8931 33be 805b 2dbe 982a ad3d 5041 28be
00000060: 376e 70be 2246 97bd f4df 443e 58aa c8bd
00000070: 5b1f 643e dab5 b73d eb6d 6e3e 184e 5a3e
00000080: 7331 073e 6368 1abb 9e5a 9dbd eeb4 1dbc
00000090: 6574 4b3e 5216 1cbe 0a8d 6a3e 7c7b 5dbd
000000a0: e2d1 9abd b99e 11be 13c0 523d 35e7 2cbe
000000b0: 8155 0e3e 204b 7dbd 10fe 7c3e 1e83 febd
000000c0: 4968 1cbe 16fc 1dbe 982f 0bbe d3f9 42be
000000d0: e395 e53d 8321 ac3c 84a4 7c3c bec8 153e
000000e0: 207b 10be 17f6 153e 107a 643d 3995 a23d
000000f0: d232 0abe 2154 e53d 13b6 09be 5129 383e
00000100: ddb6 12be 9571 81be 6139 473e 7993 18be
00000110: 48f0 6dbe 34ff 16be 2c2f 30be 40a8 28bd
00000120: e494 6b3e 7433 66be d51a f13c d0f6 5d3e
00000130: 963c 97bd 82e0 be3d e8a2 5a3e 39d9 0e3d
00000140: d4d7 793e 90d9 bb3d 8c46 05bd a178 553e
00000150: f041 433e 29b3 683e 604d 6dbd 55c9 09be
00000160: e482 74be 509d 053e 5862 8e3d 2077 eebc
00000170: fcbf 3d3e 102b 78bd 8dbb 093e ac28 39be
00000180: f055 67be 1d1e f5ba 9306 36be abb1 b1bd
00000190: 42e4 ad39 e893 44be a02d 7e3e 980b 073e
000001a0: bc68 13bd 35a1 4f3d 77c5 7dbd f3c3 b2bc
000001b0: 940c 3f3e 80aa 133c ce40 f03d 74dd 063e
000001c0: dc0a 01be 3b90 793e a3e8 513e 897c 76bd
000001d0: 20b0 01be 7038 0f3d 7c6d 32bc a3c4 27be
000001e0: b7bd 4dbd c4ee b0bd 4861 0b3e b58a c43d
000001f0: 6cee da3d 0c58 8fbd 2933 89bb 1add f8bd
00000200: 98dc b7bd 616a 7c3c 5cc8 34bd 6da5 353e
00000210: e2d9 91bd 8328 203e e57b a4bd 1fb1 d0bc
00000220: 3b12 f83d 9eba dd3d d640 863c 7f88 6e3e
00000230: a800 e23c 5bcd a9bd d3d7 3a3e a59e 6cbd
00000240: 0fd1 a9bb 80fc b23b 6b6b 013e 4275 ce3d
00000250: 1630 16be 96bb ec3d e098 1abe 9f73 0e3d
00000260: 9eb5 74be c01a 56be 0506 aabd 9eb8 cd3c
00000270: cd7f 323e 123e 5d3e d929 273d a87a 74be
00000280: 4284 103e 3d00 85bd 2754 0b3e 957d 47be
00000290: e0df a0bd 1e74 e83d 8f14 34be 4922 953e
000002a0: b2e3 4f3e c826 40be f5d3 863c e323 e03d
000002b0: 2b65 20bd a0a0 acbd 1475 2f3e dd03 803d
000002c0: 73ac cb3d 24c7 b43d ffdf 793d 1e35 963e
000002d0: be09 993d 3ac7 65be 8f7c 323e 733a 283e
000002e0: e831 2abe eddf cabc 6b08 dfbd d2b7 503e
000002f0: 2731 20be 7bad 27be 649a 6f3d f28f 3fbd
00000300: a4a1 683e 6bdc 3abe e0c5 663e d7a6 3ebd
00000310: 7633 d23c 11bd 57bd 35b9 f83d 694d 4fbe
00000320: 88cf 323e d20f 9d3d fad6 413e 9826 4e3e
00000330: 1d3e 773e 101d 0ebe e4db 1bbe b677 e03b
00000340: 20b1 e33d d8cd 0c3e 4e3a db3d d436 0d3e
00000350: 642d 15be 1cb7 be3a 28ac 47be 92a5 c1bc
00000360: 0803 67be 2849 d03d 88f0 5fbe 6e9b 61be
00000370: c040 6fbc 805e a3bd b6fb aa3d 9c10 8fbd
00000380: 23c1 463e f164 913d be3f 52be db1e 56bd
00000390: 27b0 f5bd e0c1 a0bc 80a7 f83b 301b 1e3e
000003a0: 8c44 b1bd d7eb 00be d4b8 1abe 7864 8b3d
000003b0: c8fe 51be 80c1 27bd 3c92 22bd 5864 313d
000003c0: 4061 14bc 5bb5 19be 40cf 76bd a8a0 b23d
000003d0: 9b34 39bd 2d98 a3bd 18e9 4bbe 6cbd 5ebe
000003e0: 60dd 31be 108b 96bd fc58 3dbe 2100 64be
000003f0: dce2 b93d ea8e 273e 99aa 203d cbb1 5bbe
0.16784814 0.0726478 -0.20935169 -0.009952264 -0.0024077303 0.25193202 0.15167874 0.25091884
0.16319023 0.040054545 -0.091569774 0.16054916 -0.037832085 -0.088129975 0.13153888 0.2507151
0.06781919 -0.032897294 -0.080405936 0.063972585 -0.17499365 -0.16929436 0.0845539 -0.16431165
-0.23479544 -0.07386424 0.19226056 -0.097981155 0.22277586 0.08970232 0.23284118 0.21318853
0.13202457 -0.0023560754 -0.076832995 -0.0096256565 0.1986862 -0.1524289 0.22905365 -0.054072842
-0.07559563 -0.14220704 0.051452707 -0.16885073 0.13899805 -0.061839223 0.24706292 -0.12427352
-0.15274157 -0.15428194 -0.13592374 -0.19040613 0.11210229 0.021012073 0.015420083 0.14627358
-0.14109468 0.14644657 0.05578047 0.07938618 -0.13495949 0.11197687 -0.13448362 0.17984511
-0.1432757 -0.2528197 0.19455482 -0.14900006 -0.23236191 -0.1474579 -0.17205495 -0.04117608
0.23006016 -0.22480565 0.02943174 0.21676183 -0.07384603 0.09320165 0.21351206 0.03487513
0.24398738 0.09172356 -0.032537982 0.20846798 0.19068122 0.22724594 -0.05793512 -0.13455708
-0.23878056 0.13048291 0.06952351 -0.029109538 0.18530267 -0.060587943 0.13450451 -0.18081921
-0.22591376 -0.0018700991 -0.17775945 -0.086764656 0.00033167197 -0.19197047 0.24822092 0.13188016
-0.035988554 0.05069085 -0.061955895 -0.021821951 0.18657142 0.009012818 0.117311105 0.13170415
-0.12601799 0.24371426 0.204989 -0.06017736 -0.12664843 0.034965932 -0.010890361 -0.16383605
-0.050229754 -0.08639291 0.13611329 0.09596769 0.106900066 -0.069992155 -0.004187007 -0.12151547
-0.08977622 0.015406222 -0.04413639 0.17738886 -0.07121636 0.15640454 -0.080314435 -0.025475083
0.12112852 0.1082661 0.016388338 0.23294257 0.027588204 -0.082911216 0.18246393 -0.057768483
-0.0051823924 0.0054622293 0.12638633 0.10080959 -0.14666781 0.11559217 -0.1509738 0.034778234
-0.23897406 -0.20908642 -0.083019294 0.025112446 0.17431565 0.21605709 0.040811393 -0.23874915
0.14112952 -0.06494186 0.1360632 -0.194815 -0.07855201 0.113502726 -0.17585967 0.2912772
0.20301703 -0.18764794 0.01645849 0.10944345 -0.03915898 -0.08429074 0.17134506 0.06250737
0.099450015 0.088270456 0.061004635 0.293374 0.07472561 -0.2243928 0.17430328 0.16428547
-0.166206 -0.02476498 -0.108902775 0.20382622 -0.1564375 -0.16374771 0.058496848 -0.046768136
0.22717911 -0.18248145 0.22536421 -0.04654583 0.025659304 -0.052670542 0.121447004 -0.20244373
0.1746198 0.07669033 0.18929663 0.2013191 0.24144788 -0.13878274 -0.152206 0.006850208
0.11117768 0.13750398 0.1070448 0.13790447 -0.14568096 0.001455042 -0.19499266 -0.02363852
-0.2255975 0.101702034 -0.21869099 -0.22031948 -0.01460284 -0.07977009 0.08348791 -0.0698559
0.19409613 0.07099331 -0.20532128 -0.05227552 -0.11996489 -0.019623697 0.007588327 0.15440059
-0.086556524 -0.12589966 -0.15109569 0.06806272 -0.20507348 -0.04095602 -0.03969024 0.043308586
-0.009056389 -0.15010588 -0.060256243 0.08722049 -0.045216184 -0.079880096 -0.19913137 -0.21751946
-0.17369604 -0.07350743 -0.18490976 -0.22265674 0.09076473 0.16363111 0.039225195 -0.21454541

sequential_7/dense_31/MatMul f4 [5, 32]
00000000: a964 4f3e 9dbb 49be 2c5d fabd 1ebf 913e
00000010: 0671 35be ee34 a03e 58b2 9c3e 7716 973d
00000020: d1fa bb3d 3918 593e 8c48 fa3d 4c0a e53c
00000030: 6ef3 483e 663c 803c 57b1 973e 36ae bb3d
00000040: 825e 9b3e 4ece 4f3e 6678 973e 682a 2d3d
00000050: e0ce 8fbe fbb5 9abe 63c2 843d 60fb 903e
00000060: 28d8 a33d 59d9 113e 9fb2 55be 15c8 d53c
00000070: f23d b4be ea1a 183e f153 ccbe 9578 903e
00000080: af27 88be 38e2 873e 5257 923e efaa a0be
00000090: 7066 713e 5a8a 483e 0e7d 763d a519 a8be
000000a0: af2e 883d 897e 5cbe 1a1c f13a bde7 813e
000000b0: 1520 c33e 8470 ce3d aa4e 44be 0dd4 bcbe
000000c0: 81e2 64be f1d8 c13d 5f80 c33e a19b c03e
000000d0: 27a8 983e 6e1f 90bd 3503 1f3e 1267 6cbe
000000e0: 0ef4 723e b933 813e 8c8a 8a3d d763 aebe
000000f0: f8bc 803e d4df c53a 2b86 f4bd ee53 953e
00000100: 0510 2f3e 5b50 9cbe 60b7 303e 8ef9 97be
00000110: 33cb 81be ba02 f8bd 10cf 98bd 1995 ef3e
00000120: c938 b43e f1ea 523d 731b 8e3e 3349 c63e
00000130: 29b2 f6bc e391 773e 5cfe b93e 6799 50be
00000140: 1cd0 6c3d 879a 193d f593 cd3e 4147 aa3e
00000150: 16db 02be 0c32 8dbe 6c19 9a3e d985 55be
00000160: 098d b8bc 62fe 983e 8aee 6a3d f946 f23e
00000170: 1180 86be 45c3 cc3d 65a3 9fbd bcb4 6dbd
00000180: b326 8e3e 2135 a03d 7bb0 a8be 883d 8b3e
00000190: 81fb c5be 0c74 853e 57e9 9abe d6c0 c33e
000001a0: 6c91 c8be 4986 37be e004 453d f5d5 9ebe
000001b0: 5d7c 7dbe 5e77 74be b35f 5f3d c15b 0abd
000001c0: 3a94 92be 1567 3d3e ee69 bf3e e385 ca3e
000001d0: 54cb a0be 7ee8 953e 8933 23be 8119 ce3e
000001e0: 1d44 ccbe 5785 e53d 20e5 05be 2b5c b2bd
000001f0: 7207 be3c c8a0 d7bd 3f44 aabe b8a4 debe
00000200: 3171 6f3d 4ce8 c53e 9a76 b53c 5830 6dbe
00000210: cbdb 9d3e 9f4f c2be 79cc ecbd 797c a13d
00000220: 6725 33be 6acb 62be 893f dd3d eb79 b53d
00000230: d017 143e 1169 753e fb36 bd3e 0fe8 593d
00000240: 723e 2c3e db44 823e 6c36 aebe 2896 62be
00000250: e249 6abe a3c2 533e 4db2 31be 2ea6 a8bd
00000260: 1055 dabe 9f84 653e 73fa 13bd 5d00 133d
00000270: 5431 753e d89a b9ba f04f 7b3e 5c41 a0be
0.20253243 -0.19700475 -0.122248024 0.28466123 -0.17718896 0.31290382 0.30604815 0.07377332
0.09178699 0.21200646 0.122208685 0.027959011 0.19624111 0.0156538 0.29627487 0.091640875
0.3034554 0.20293543 0.29584044 0.04227677 -0.2808752 -0.30216965 0.06482389 0.28316784
0.08000213 0.14243068 -0.2086892 0.026096383 -0.3520351 0.14854017 -0.39907792 0.28216997
-0.26592776 0.2653978 0.28582245 -0.31380412 0.23574233 0.19584027 0.060177855 -0.32832065
0.06649529 -0.21532644 0.0018395216 0.25372115 0.38110414 0.100800544 -0.19170633 -0.36880532
-0.2235203 0.094652064 0.38183877 0.37618735 0.2981579 -0.07037245 0.15528567 -0.23086193
0.23725912 0.25234774 0.06764707 -0.34060547 0.25144172 0.0015096613 -0.11939653 0.29165596
0.17095955 -0.30530056 0.17257452 -0.29682583 -0.2535034 -0.12109895 -0.07461369 0.4679344
0.35199574 0.05149359 0.27755317 0.38727722 -0.03011425 0.24176745 0.36326873 -0.20371018
0.057815656 0.037500884 0.40151945 0.33257487 -0.12778887 -0.27577245 0.3009752 -0.2085184
-0.022528188 0.2988158 0.057356395 0.47319773 -0.26269582 0.09998182 -0.07794837 -0.05803369
0.277639 0.078226335 -0.32947144 0.27195382 -0.38668445 0.260651 -0.3025615 0.3823306
-0.39173448 -0.1792232 0.048100352 -0.3102261 -0.24754472 -0.2387366 0.054534625 -0.03377891
-0.28628713 0.18496354 0.37385505 0.39555272 -0.31405127 0.2927894 -0.15937628 0.40253833
-0.39895716 0.11207073 -0.13075686 -0.08708986 0.02319691 -0.105287135 -0.33255193 -0.43485045
0.058457557 0.3865379 0.02215128 -0.23162973 0.3083175 -0.3795137 -0.115624376 0.078850694
-0.17494737 -0.22147909 0.10803134 0.08861145 0.14462209 0.23965861 0.3695601 0.053199824
0.16820696 0.25443158 -0.34025896 -0.22127593 -0.22879747 0.20679717 -0.17353173 -0.08234821
-0.42643023 0.22413872 -0.03612752 0.03588902 0.23944598 -0.0014160527 0.24542212 -0.31299865
